checkpoint.pth (torch, 3503 bytes, 5 tensors)

dense0.weight f4 [8, 30]
00000000: 2d05 24bf 0356 46bc 0a8e c9be 5993 d0bd
00000010: b9a1 ab3d da8b 4fbd 7aa9 553d 01bc 66bd
00000020: 75c2 243d ac40 b73d 803b 96bc 51b2 203b
00000030: e0f4 4c3a 892c 8dbc d82d dc3c 6b19 6c3e
00000040: 50d8 bfbe ec74 9dbe e822 ddbd 4784 dd3e
00000050: 09c2 f6be c219 be3c 9497 a7be 8618 3d3e
00000060: 1a90 fd3c 3211 203d 55cb b13c 54b4 823d
00000070: 951b 8e3c 4826 2a3f a705 9a3d b1bb 6e3c
00000080: 8f67 523d a53e 4ebd 4e8c ce3d f8f0 0d3d
00000090: aa8e 913d c5ca c2ba a0aa 21bd 2286 11bd
000000a0: e982 ed3c ba35 10bb 802d 2abd 0ced a13d
000000b0: 22fe c2b0 15d6 0836 42fe a83c 4a0e dcb1
000000c0: c8af c2b2 71b9 3c31 e4c5 a6bd dd1f 393d
000000d0: 3a69 49bd 7b49 48bd 1d8f 90bd 1880 f3bc
000000e0: cda6 ac3d 2c2f 47bd 34a8 853d 0bfe f73c
000000f0: 3c2b 84bd 84d7 33be 98f6 e0be e304 bfbd
00000100: ee8d 153e 7f1d d03d b5b0 693d 8bea f4bd
00000110: cfa0 01bd ae03 d0bd 54ff f33c 7391 353b
00000120: 09e5 953b f07f 97bc 4743 053d ac8f 783d
00000130: c779 90be e03f fbbd b420 cfbd 4c81 ab3e
00000140: 4ff7 c6bd ed9b 433d 183b 67be 78ef 273e
00000150: 366b 87bd f25d 633c 4a4d 93bc 4e9c 21bc
00000160: 63ea 58bc 29ab 1c3f a51d 4ebe 95da a3be
00000170: 5d11 05be ddb3 b6bd f46a 863d 4d16 8f3e
00000180: 6d7c 4d3d 22d5 acbe efa0 c6bd 3d62 f73d
00000190: 3159 113d 6264 32bc 7342 a4bd c59b 34bc
000001a0: 38b0 73b9 0b61 24be 0ea7 113d f2a0 80be
000001b0: b609 243f 61c0 203b 2b89 77be 8b15 97be
000001c0: 0908 9fbd c0d6 0d3e 4b18 823c ee7e b4bd
000001d0: fe25 e9bd d923 393e 136e 56bd 488f 623e
000001e0: 22d7 c0bd b724 4c3d 1666 24bd 963c 393b
000001f0: a5e7 1bbd a7a4 b2bd 93c5 833d f348 b13c
00000200: b084 853e 1a9f d63d 36ff 17bc 77d1 143c
00000210: e39f 0abe 349f cdbd 186c 88b4 d3e9 03bc
00000220: d385 343b 3d90 eeb9 7113 f0b8 261b 97b4
00000230: 2e88 93bc 83f0 60bd 4c33 b9bd c4f6 bcbc
00000240: 5847 203c 5f82 603d 0000 773d 897b 993c
00000250: f3c2 973b d23d babd eead 863d 4f30 af3d
00000260: 2167 073d 1f74 043d da2d 0abc e0d7 efbc
00000270: 5215 20bd be37 bb3d 969e 123e 10fe b83e
00000280: c325 673c ae16 57bd d440 d1bd faf1 543d
00000290: c0ca a639 7887 d438 f5ec 313b 12f8 0f3e
000002a0: 11ba 353a 083b ad38 d1c6 f7bb eec4 0c3c
000002b0: 8878 b3bb 5658 66bd 8163 1e3c 7612 953d
000002c0: d406 423d 3620 83bd 5fce 0f3d ed74 b3ba
000002d0: 0919 baba 3776 cb3c 043e f93d 6977 fbb9
000002e0: a6fb 36bd 8ed6 63bd c0ce 143d 5092 f1bc
000002f0: e9e4 ff3e 0783 7abe 76cc 93bd 8ce1 623d
00000300: 4215 eebb 4931 a4be 734a 7e3b c549 b53e
00000310: 28f9 ccbc b0e3 49bb f45d 20bc 8ed1 f7bd
00000320: 0e9a 603d dd1c d0bd 532b 5d3d e067 00be
00000330: 017b 1cbe 8f2e e33d 5813 4abe c37c 6bbd
00000340: 957e 21bd 058b 80be 5f6e 4b3d 3dcf 4e3e
00000350: 0069 a73e c9db 3e3d ae40 17be 0266 3dbe
00000360: 8c5e ac3d fbba 4b3d 0f83 673d ca7b 9f3e
00000370: 2cb9 00be 9718 8abd 12d4 09bc 5198 133d
00000380: 1531 3fba f18f 4abd 371e 863d a4a8 893e
00000390: c0d0 e83e d765 413a 3a3f 0a3e 8e31 56bc
000003a0: 17e1 2a3e 7178 0cbe 44c0 663d b270 b9bc
000003b0: f446 113b f7d1 36bd 50f6 4ebd e3e7 18be
-0.640704 -0.012105468 -0.3936618 -0.10184354 0.083804555 -0.050670482 0.05216358 -0.05633164
0.04022451 0.08947882 -0.018338919 0.0024520347 0.00078184716 -0.01723315 0.026877329 0.23056571
-0.3746972 -0.30753267 -0.107976735 0.43264982 -0.48194912 0.023205642 -0.32732832 0.18466386
0.030952502 0.0390789 0.021703402 0.06382051 0.017347137 0.6646466 0.07520609 0.014571116
0.051368292 -0.05035271 0.10085355 0.034653634 0.07107289 -0.0014861455 -0.03946936 -0.03552831
0.028993087 -0.002200468 -0.0415473 0.07906541 -1.4187587e-09 2.0390191e-06 0.020629052 -6.404467e-09
-2.2664508e-08 2.7463012e-09 -0.081432134 0.045196403 -0.049172617 -0.0488982 -0.07058547 -0.029724166
0.08430252 -0.04862897 0.06526223 0.030272504 -0.06453559 -0.17562681 -0.43938136 -0.09327104
0.14604923 0.10161876 0.057053287 -0.11958798 -0.0316475 -0.10156952 0.029784836 0.0027705103
0.0045744223 -0.018493623 0.032534864 0.06068389 -0.2821791 -0.122680426 -0.101136595 0.33497083
-0.09715139 0.047756124 -0.22581136 0.16399944 -0.06612246 0.013877379 -0.01798119 -0.009863926
-0.013239476 0.6119867 -0.20128496 -0.32002702 -0.12994905 -0.08921025 0.065633684 0.27946702
0.05016749 -0.33756357 -0.096986644 0.12079284 0.03548545 -0.010888191 -0.08020487 -0.0110234665
-0.00023239932 -0.16052644 0.035559706 -0.25122792 0.6407732 0.002452873 -0.24173419 -0.29508623
-0.077652045 0.13851452 0.015880724 -0.088132724 -0.113841996 0.18080081 -0.05235107 0.2212497
-0.09416033 0.0498397 -0.04013642 0.0028264872 -0.03806271 -0.08722811 0.06434169 0.02164123
0.26077795 0.10479565 -0.009277156 0.009083143 -0.13537554 -0.10040131 -2.5410623e-07 -0.0080513535
0.0027545586 -0.00045502363 -0.00011447713 -2.8145695e-07 -0.018009271 -0.05491687 -0.09042987 -0.023066886
0.009782635 0.05481183 0.060302734 0.018735664 0.004631394 -0.090938225 0.06576143 0.08554136
0.033057336 0.032337304 -0.008433783 -0.029277742 -0.039082833 0.09141491 0.14318308 0.36131334
0.014108124 -0.052511863 -0.10217443 0.05198858 0.00031813048 0.00010134181 0.0027149294 0.14059475
0.0006932328 8.260278e-05 -0.0075615426 0.008591874 -0.005477015 -0.056236587 0.009667278 0.07278912
0.047369793 -0.06402628 0.03510892 -0.0013691463 -0.0014198135 0.024836643 0.12170032 -0.00047963418
-0.044673584 -0.055624537 0.036329985 -0.029488713 0.49979332 -0.24464045 -0.07216732 0.05539088
-0.0072657177 -0.32068852 0.00388017 0.35407844 -0.02502115 -0.0030805878 -0.009788025 -0.12100516
0.054834418 -0.10161755 0.053996395 -0.12539625 -0.15281297 0.11092865 -0.19733942 -0.05749203
-0.03942736 -0.25106063 0.049665805 0.20196243 0.32697296 0.046596322 -0.14770767 -0.18495944
0.08416471 0.049738865 0.05652147 0.3114913 -0.12570637 -0.067429714 -0.008412378 0.036033932
-0.00072933856 -0.04945368 0.06548732 0.26886475 0.45471764 0.0007377541 0.13500682 -0.013073338
0.16687427 -0.1371782 0.056335703 -0.022636745 0.0022167535 -0.04463383 -0.05052787 -0.14932208

dense0.bias f4 [8]
00000000: c4ed 37bf b2d7 3cba 2eb9 66bf 5df3 96be
00000010: de75 9a3c ffad 4d3e 9411 313e d20c cd3e
-0.71847177 -0.0007203772 -0.9012631 -0.29482546 0.018855032 0.20085905 0.17291862 0.40048844

dense1.weight f4 [8, 8]
00000000: 9371 cd3d 403d 0cbd c164 0a3e 143c cb3d
00000010: faa7 ebbc 75a3 7bbb 91cb ddbb 2702 8cbd
00000020: 98ab 76bd e428 82bd 6697 0dbd e719 8cbc
00000030: c256 dabc 98ca 693d 3044 e63d d2cd eabd
00000040: 7d2e 003e ac04 19bd 6be2 7dbc 02a9 c93d
00000050: d590 583d e127 bbbd 6413 e6bc c9c7 10bd
00000060: 9a36 e33d 8c29 57bd 6c8e d33d e422 943d
00000070: 1f9b cb3c 420d a2bc 2f09 98bc 63bc 01bd
00000080: fb82 66bd 014f ec3c 982d 06bd b99f 07bd
00000090: 4ff4 833d 35b4 c43d badd 373d 18a1 6a3d
000000a0: f9c5 ecbc 387d a73d 5295 9cbc b644 ffbc
000000b0: a58e 933c 274a e73d 4089 853c 5009 a73d
000000c0: 2b95 17be 0454 703d 0308 e3bc d86f f23a
000000d0: 3569 a8bc 9e76 0c3e 7766 8e3d 683b e93d
000000e0: ba76 37bd 2670 cabb eaf3 d3bc 5f0f 1d3c
000000f0: 7812 7b38 3d91 7c3d 9e3b 903d 164c 973d
0.10031428 -0.0342381 0.13514997 0.09923568 -0.02876662 -0.0038396989 -0.006768652 -0.06836348
-0.06022224 -0.063554555 -0.034568213 -0.017102195 -0.026652697 0.057077974 0.112434745 -0.11465038
0.12517734 -0.03735797 -0.015495877 0.09846689 0.052872498 -0.09138466 -0.028085418 -0.03534678
0.11094399 -0.052529857 0.10329899 0.07233217 0.024854241 -0.019781712 -0.018559067 -0.0316738
-0.056277256 0.028846266 -0.032758325 -0.033111308 0.064430825 0.09604684 0.04488919 0.057282537
-0.028902994 0.081781805 -0.01911417 -0.031160694 0.018012354 0.1129344 0.016300797 0.08156073
-0.14802997 0.058673874 -0.027713781 0.0018496467 -0.02055798 0.13717124 0.06953137 0.11388284
-0.04479096 -0.00617792 -0.025873143 0.009586184 5.9860264e-05 0.061661948 0.07042621 0.07387559

dense1.bias f4 [8]
00000000: 69bc 9bbe 9959 1e3f 13a6 5fbf 4301 f2be
00000010: 1af9 603f d163 4c3f 0588 063f 3d9e 4f3f
-0.30417183 0.61855465 -0.87362784 -0.47266588 0.878801 0.7983981 0.525513 0.8110083

dense2.weight f4 [1, 8]
00000000: 6435 47be 92fa ab3e 3636 cabe c085 5abe
00000010: 63e8 093f 4142 ba3e 8e3d ae3e 9240 bb3e
-0.1945396 0.33589607 -0.39494485 -0.21340084 0.5387022 0.36378673 0.34031337 0.365727
